…
2019-11-13 16:48:49,782 WARNING From /usr/common/software/tensorflow/intel-tensorflow/1.13.1-py36/lib/python3.6/site-packages/tensorflow/python/framework/op_def_library.py:263: colocate_with (from tensorflow.python.framework.ops) is deprecated and will be removed in a future version.
Instructions for updating:
Colocations handled automatically by placer.
__________________________________________________________________________________________________
Layer (type)                    Output Shape         Param #     Connected to                     
==================================================================================================
input_1 (InputLayer)            (None, 32, 32, 3)    0                                            
__________________________________________________________________________________________________
conv1 (Conv2D)                  (None, 32, 32, 64)   1792        input_1[0][0]                    
__________________________________________________________________________________________________
bn_conv1 (BatchNormalization)   (None, 32, 32, 64)   256         conv1[0][0]                      
__________________________________________________________________________________________________
activation_1 (Activation)       (None, 32, 32, 64)   0           bn_conv1[0][0]                   
__________________________________________________________________________________________________
res2a_branch2a (Conv2D)         (None, 16, 16, 64)   4160        activation_1[0][0]               
__________________________________________________________________________________________________
bn2a_branch2a (BatchNormalizati (None, 16, 16, 64)   256         res2a_branch2a[0][0]             
__________________________________________________________________________________________________
activation_2 (Activation)       (None, 16, 16, 64)   0           bn2a_branch2a[0][0]              
__________________________________________________________________________________________________
res2a_branch2b (Conv2D)         (None, 16, 16, 64)   36928       activation_2[0][0]               
__________________________________________________________________________________________________
bn2a_branch2b (BatchNormalizati (None, 16, 16, 64)   256         res2a_branch2b[0][0]             
__________________________________________________________________________________________________
activation_3 (Activation)       (None, 16, 16, 64)   0           bn2a_branch2b[0][0]              
__________________________________________________________________________________________________
res2a_branch2c (Conv2D)         (None, 16, 16, 64)   4160        activation_3[0][0]               
__________________________________________________________________________________________________
res2a_branch1 (Conv2D)          (None, 16, 16, 64)   4160        activation_1[0][0]               
__________________________________________________________________________________________________
bn2a_branch2c (BatchNormalizati (None, 16, 16, 64)   256         res2a_branch2c[0][0]             
__________________________________________________________________________________________________
bn2a_branch1 (BatchNormalizatio (None, 16, 16, 64)   256         res2a_branch1[0][0]              
__________________________________________________________________________________________________
add_1 (Add)                     (None, 16, 16, 64)   0           bn2a_branch2c[0][0]              
                                                                 bn2a_branch1[0][0]               
__________________________________________________________________________________________________
activation_4 (Activation)       (None, 16, 16, 64)   0           add_1[0][0]                      
__________________________________________________________________________________________________
res2b_branch2a (Conv2D)         (None, 16, 16, 64)   4160        activation_4[0][0]               
__________________________________________________________________________________________________
bn2b_branch2a (BatchNormalizati (None, 16, 16, 64)   256         res2b_branch2a[0][0]             
__________________________________________________________________________________________________
activation_5 (Activation)       (None, 16, 16, 64)   0           bn2b_branch2a[0][0]              
__________________________________________________________________________________________________
res2b_branch2b (Conv2D)         (None, 16, 16, 64)   36928       activation_5[0][0]               
__________________________________________________________________________________________________
bn2b_branch2b (BatchNormalizati (None, 16, 16, 64)   256         res2b_branch2b[0][0]             
__________________________________________________________________________________________________
activation_6 (Activation)       (None, 16, 16, 64)   0           bn2b_branch2b[0][0]              
__________________________________________________________________________________________________
res2b_branch2c (Conv2D)         (None, 16, 16, 64)   4160        activation_6[0][0]               
__________________________________________________________________________________________________
bn2b_branch2c (BatchNormalizati (None, 16, 16, 64)   256         res2b_branch2c[0][0]             
__________________________________________________________________________________________________
add_2 (Add)                     (None, 16, 16, 64)   0           bn2b_branch2c[0][0]              
                                                                 activation_4[0][0]               
__________________________________________________________________________________________________
activation_7 (Activation)       (None, 16, 16, 64)   0           add_2[0][0]                      
__________________________________________________________________________________________________
res3a_branch2a (Conv2D)         (None, 8, 8, 128)    8320        activation_7[0][0]               
__________________________________________________________________________________________________
bn3a_branch2a (BatchNormalizati (None, 8, 8, 128)    512         res3a_branch2a[0][0]             
__________________________________________________________________________________________________
activation_8 (Activation)       (None, 8, 8, 128)    0           bn3a_branch2a[0][0]              
__________________________________________________________________________________________________
res3a_branch2b (Conv2D)         (None, 8, 8, 128)    147584      activation_8[0][0]               
__________________________________________________________________________________________________
bn3a_branch2b (BatchNormalizati (None, 8, 8, 128)    512         res3a_branch2b[0][0]             
__________________________________________________________________________________________________
activation_9 (Activation)       (None, 8, 8, 128)    0           bn3a_branch2b[0][0]              
__________________________________________________________________________________________________
res3a_branch2c (Conv2D)         (None, 8, 8, 128)    16512       activation_9[0][0]               
__________________________________________________________________________________________________
res3a_branch1 (Conv2D)          (None, 8, 8, 128)    8320        activation_7[0][0]               
__________________________________________________________________________________________________
bn3a_branch2c (BatchNormalizati (None, 8, 8, 128)    512         res3a_branch2c[0][0]             
__________________________________________________________________________________________________
bn3a_branch1 (BatchNormalizatio (None, 8, 8, 128)    512         res3a_branch1[0][0]              
__________________________________________________________________________________________________
add_3 (Add)                     (None, 8, 8, 128)    0           bn3a_branch2c[0][0]              
                                                                 bn3a_branch1[0][0]               
__________________________________________________________________________________________________
activation_10 (Activation)      (None, 8, 8, 128)    0           add_3[0][0]                      
__________________________________________________________________________________________________
res3b_branch2a (Conv2D)         (None, 8, 8, 128)    16512       activation_10[0][0]              
__________________________________________________________________________________________________
bn3b_branch2a (BatchNormalizati (None, 8, 8, 128)    512         res3b_branch2a[0][0]             
__________________________________________________________________________________________________
activation_11 (Activation)      (None, 8, 8, 128)    0           bn3b_branch2a[0][0]              
__________________________________________________________________________________________________
res3b_branch2b (Conv2D)         (None, 8, 8, 128)    147584      activation_11[0][0]              
__________________________________________________________________________________________________
bn3b_branch2b (BatchNormalizati (None, 8, 8, 128)    512         res3b_branch2b[0][0]             
__________________________________________________________________________________________________
activation_12 (Activation)      (None, 8, 8, 128)    0           bn3b_branch2b[0][0]              
__________________________________________________________________________________________________
res3b_branch2c (Conv2D)         (None, 8, 8, 128)    16512       activation_12[0][0]              
__________________________________________________________________________________________________
bn3b_branch2c (BatchNormalizati (None, 8, 8, 128)    512         res3b_branch2c[0][0]             
__________________________________________________________________________________________________
add_4 (Add)                     (None, 8, 8, 128)    0           bn3b_branch2c[0][0]              
                                                                 activation_10[0][0]              
__________________________________________________________________________________________________
activation_13 (Activation)      (None, 8, 8, 128)    0           add_4[0][0]                      
__________________________________________________________________________________________________
res4a_branch2a (Conv2D)         (None, 4, 4, 256)    33024       activation_13[0][0]              
__________________________________________________________________________________________________
bn4a_branch2a (BatchNormalizati (None, 4, 4, 256)    1024        res4a_branch2a[0][0]             
__________________________________________________________________________________________________
activation_14 (Activation)      (None, 4, 4, 256)    0           bn4a_branch2a[0][0]              
__________________________________________________________________________________________________
res4a_branch2b (Conv2D)         (None, 4, 4, 256)    590080      activation_14[0][0]              
__________________________________________________________________________________________________
bn4a_branch2b (BatchNormalizati (None, 4, 4, 256)    1024        res4a_branch2b[0][0]             
__________________________________________________________________________________________________
activation_15 (Activation)      (None, 4, 4, 256)    0           bn4a_branch2b[0][0]              
__________________________________________________________________________________________________
res4a_branch2c (Conv2D)         (None, 4, 4, 256)    65792       activation_15[0][0]              
__________________________________________________________________________________________________
res4a_branch1 (Conv2D)          (None, 4, 4, 256)    33024       activation_13[0][0]              
__________________________________________________________________________________________________
bn4a_branch2c (BatchNormalizati (None, 4, 4, 256)    1024        res4a_branch2c[0][0]             
__________________________________________________________________________________________________
bn4a_branch1 (BatchNormalizatio (None, 4, 4, 256)    1024        res4a_branch1[0][0]              
__________________________________________________________________________________________________
add_5 (Add)                     (None, 4, 4, 256)    0           bn4a_branch2c[0][0]              
                                                                 bn4a_branch1[0][0]               
__________________________________________________________________________________________________
activation_16 (Activation)      (None, 4, 4, 256)    0           add_5[0][0]                      
__________________________________________________________________________________________________
res4b_branch2a (Conv2D)         (None, 4, 4, 256)    65792       activation_16[0][0]              
__________________________________________________________________________________________________
bn4b_branch2a (BatchNormalizati (None, 4, 4, 256)    1024        res4b_branch2a[0][0]             
__________________________________________________________________________________________________
activation_17 (Activation)      (None, 4, 4, 256)    0           bn4b_branch2a[0][0]              
__________________________________________________________________________________________________
res4b_branch2b (Conv2D)         (None, 4, 4, 256)    590080      activation_17[0][0]              
__________________________________________________________________________________________________
bn4b_branch2b (BatchNormalizati (None, 4, 4, 256)    1024        res4b_branch2b[0][0]             
__________________________________________________________________________________________________
activation_18 (Activation)      (None, 4, 4, 256)    0           bn4b_branch2b[0][0]              
__________________________________________________________________________________________________
res4b_branch2c (Conv2D)         (None, 4, 4, 256)    65792       activation_18[0][0]              
__________________________________________________________________________________________________
bn4b_branch2c (BatchNormalizati (None, 4, 4, 256)    1024        res4b_branch2c[0][0]             
__________________________________________________________________________________________________
add_6 (Add)                     (None, 4, 4, 256)    0           bn4b_branch2c[0][0]              
                                                                 activation_16[0][0]              
__________________________________________________________________________________________________
activation_19 (Activation)      (None, 4, 4, 256)    0           add_6[0][0]                      
__________________________________________________________________________________________________
res5a_branch2a (Conv2D)         (None, 2, 2, 512)    131584      activation_19[0][0]              
__________________________________________________________________________________________________
bn5a_branch2a (BatchNormalizati (None, 2, 2, 512)    2048        res5a_branch2a[0][0]             
__________________________________________________________________________________________________
activation_20 (Activation)      (None, 2, 2, 512)    0           bn5a_branch2a[0][0]              
__________________________________________________________________________________________________
res5a_branch2b (Conv2D)         (None, 2, 2, 512)    2359808     activation_20[0][0]              
__________________________________________________________________________________________________
bn5a_branch2b (BatchNormalizati (None, 2, 2, 512)    2048        res5a_branch2b[0][0]             
__________________________________________________________________________________________________
activation_21 (Activation)      (None, 2, 2, 512)    0           bn5a_branch2b[0][0]              
__________________________________________________________________________________________________
res5a_branch2c (Conv2D)         (None, 2, 2, 512)    262656      activation_21[0][0]              
__________________________________________________________________________________________________
res5a_branch1 (Conv2D)          (None, 2, 2, 512)    131584      activation_19[0][0]              
__________________________________________________________________________________________________
WARNING:tensorflow:From /usr/common/software/tensorflow/intel-tensorflow/1.13.1-py36/lib/python3.6/site-packages/tensorflow/python/ops/math_ops.py:3066: to_int32 (from tensorflow.python.ops.math_ops) is deprecated and will be removed in a future version.
Instructions for updating:
…
WARNING:tensorflow:From /usr/common/software/tensorflow/intel-tensorflow/1.13.1-py36/lib/python3.6/site-packages/horovod/tensorflow/__init__.py:86: div (from tensorflow.python.ops.math_ops) is deprecated and will be removed in a future version.
Instructions for updating:
Deprecated in favor of operator or tf.math.divide.
2019-11-13 16:49:32,499 WARNING From /usr/common/software/tensorflow/intel-tensorflow/1.13.1-py36/lib/python3.6/site-packages/horovod/tensorflow/__init__.py:86: div (from tensorflow.python.ops.math_ops) is deprecated and will be removed in a future version.
Instructions for updating:
Deprecated in favor of operator or tf.math.divide.
bn5a_branch2c (BatchNormalizati (None, 2, 2, 512)    2048        res5a_branch2c[0][0]             
__________________________________________________________________________________________________
bn5a_branch1 (BatchNormalizatio (None, 2, 2, 512)    2048        res5a_branch1[0][0]              
__________________________________________________________________________________________________
add_7 (Add)                     (None, 2, 2, 512)    0           bn5a_branch2c[0][0]              
                                                                 bn5a_branch1[0][0]               
__________________________________________________________________________________________________
activation_22 (Activation)      (None, 2, 2, 512)    0           add_7[0][0]                      
__________________________________________________________________________________________________
res5b_branch2a (Conv2D)         (None, 2, 2, 512)    262656      activation_22[0][0]              
__________________________________________________________________________________________________
bn5b_branch2a (BatchNormalizati (None, 2, 2, 512)    2048        res5b_branch2a[0][0]             
__________________________________________________________________________________________________
activation_23 (Activation)      (None, 2, 2, 512)    0           bn5b_branch2a[0][0]              
__________________________________________________________________________________________________
res5b_branch2b (Conv2D)         (None, 2, 2, 512)    2359808     activation_23[0][0]              
__________________________________________________________________________________________________
bn5b_branch2b (BatchNormalizati (None, 2, 2, 512)    2048        res5b_branch2b[0][0]             
__________________________________________________________________________________________________
activation_24 (Activation)      (None, 2, 2, 512)    0           bn5b_branch2b[0][0]              
__________________________________________________________________________________________________
res5b_branch2c (Conv2D)         (None, 2, 2, 512)    262656      activation_24[0][0]              
__________________________________________________________________________________________________
bn5b_branch2c (BatchNormalizati (None, 2, 2, 512)    2048        res5b_branch2c[0][0]             
__________________________________________________________________________________________________
add_8 (Add)                     (None, 2, 2, 512)    0           bn5b_branch2c[0][0]              
                                                                 activation_22[0][0]              
__________________________________________________________________________________________________
activation_25 (Activation)      (None, 2, 2, 512)    0           add_8[0][0]                      
__________________________________________________________________________________________________
avg_pool (GlobalAveragePooling2 (None, 512)          0           activation_25[0][0]              
__________________________________________________________________________________________________
fc1000 (Dense)                  (None, 10)           5130        avg_pool[0][0]                   
==================================================================================================
Total params: 7,704,394
Trainable params: 7,690,826
Non-trainable params: 13,568
__________________________________________________________________________________________________
Epoch 1/32
 - 174s - loss: 2.6844 - acc: 0.2759 - val_loss: 2.5136 - val_acc: 0.3586
…
